Crop Classification Model Training Summary
========================================

Dataset Information:
- Total classes: 27
- Total samples after filtering: 27000
- Samples after resampling: 3053

Model Architecture:
Model: "functional"
┏━━━━━━━━━━━━━━━━━━━━━━━━━━━━━━━━━━━━━━┳━━━━━━━━━━━━━━━━━━━━━━━━━━━━━┳━━━━━━━━━━━━━━━━━┓
┃ Layer (type)                         ┃ Output Shape                ┃         Param # ┃
┡━━━━━━━━━━━━━━━━━━━━━━━━━━━━━━━━━━━━━━╇━━━━━━━━━━━━━━━━━━━━━━━━━━━━━╇━━━━━━━━━━━━━━━━━┩
│ input_layer (InputLayer)             │ (None, 30)                  │               0 │
├──────────────────────────────────────┼─────────────────────────────┼─────────────────┤
│ dense (Dense)                        │ (None, 128)                 │           3,968 │
├──────────────────────────────────────┼─────────────────────────────┼─────────────────┤
│ leaky_re_lu (LeakyReLU)              │ (None, 128)                 │               0 │
├──────────────────────────────────────┼─────────────────────────────┼─────────────────┤
│ batch_normalization                  │ (None, 128)                 │             512 │
│ (BatchNormalization)                 │                             │                 │
├──────────────────────────────────────┼─────────────────────────────┼─────────────────┤
│ dropout (Dropout)                    │ (None, 128)                 │               0 │
├──────────────────────────────────────┼─────────────────────────────┼─────────────────┤
│ dense_1 (Dense)                      │ (None, 64)                  │           8,256 │
├──────────────────────────────────────┼─────────────────────────────┼─────────────────┤
│ leaky_re_lu_1 (LeakyReLU)            │ (None, 64)                  │               0 │
├──────────────────────────────────────┼─────────────────────────────┼─────────────────┤
│ batch_normalization_1                │ (None, 64)                  │             256 │
│ (BatchNormalization)                 │                             │                 │
├──────────────────────────────────────┼─────────────────────────────┼─────────────────┤
│ dropout_1 (Dropout)                  │ (None, 64)                  │               0 │
├──────────────────────────────────────┼─────────────────────────────┼─────────────────┤
│ dense_2 (Dense)                      │ (None, 27)                  │           1,755 │
└──────────────────────────────────────┴─────────────────────────────┴─────────────────┘
 Total params: 43,475 (169.83 KB)
 Trainable params: 14,363 (56.11 KB)
 Non-trainable params: 384 (1.50 KB)
 Optimizer params: 28,728 (112.22 KB)

Training Performance:
- Neural network test accuracy: 0.9493
- Best validation accuracy: 0.9493
- Best validation loss: 0.2390
- XGBoost test accuracy: 0.9394
- Ensemble test accuracy: 0.9591
…
